…
You should probably TRAIN this model on a down-stream task to be able to use it for predictions and inference.
</output_code>
  <markdown>Diz que os pesos da camada `score` foram inicializados de maneira aleatória e que temos que reentreiná-los, vamos ver por que isso acontece.</markdown>
  <markdown>O modelo GPT2 seria este</markdown>
  <input_code>from transformers import AutoModelForCausalLM

casual_model = AutoModelForCausalLM.from_pretrained(checkpoint)</input_code>
  <markdown>Enquanto o modelo do GPT2 para gerar texto é este</markdown>
  <markdown>Vamos a ver sua arquitetura</markdown>
  <input_code>casual_model</input_code>
  <output_code>GPT2LMHeadModel(
  (transformer): GPT2Model(
    (wte): Embedding(50257, 768)
    (wpe): Embedding(1024, 768)
    (drop): Dropout(p=0.1, inplace=False)
    (h): ModuleList(
      (0-11): 12 x GPT2Block(
        (ln_1): LayerNorm((768,), eps=1e-05, elementwise_affine=True)
        (attn): GPT2Attention(
          (c_attn): Conv1D()
          (c_proj): Conv1D()
          (attn_dropout): Dropout(p=0.1, inplace=False)
          (resid_dropout): Dropout(p=0.1, inplace=False)
        )
        (ln_2): LayerNorm((768,), eps=1e-05, elementwise_affine=True)
        (mlp): GPT2MLP(
          (c_fc): Conv1D()
          (c_proj): Conv1D()
          (act): NewGELUActivation()
          (dropout): Dropout(p=0.1, inplace=False)
        )
      )
    )
    (ln_f): LayerNorm((768,), eps=1e-05, elementwise_affine=True)
  )
  (lm_head): Linear(in_features=768, out_features=50257, bias=False)
)</output_code>
  <markdown>E agora a arquitetura do modelo que vamos usar para classificar as reviews</markdown>
  <input_code>model</input_code>
  <output_code>GPT2ForSequenceClassification(
  (transformer): GPT2Model(
    (wte): Embedding(50257, 768)
    (wpe): Embedding(1024, 768)
    (drop): Dropout(p=0.1, inplace=False)
    (h): ModuleList(
      (0-11): 12 x GPT2Block(
        (ln_1): LayerNorm((768,), eps=1e-05, elementwise_affine=True)
        (attn): GPT2Attention(
          (c_attn): Conv1D()
          (c_proj): Conv1D()
          (attn_dropout): Dropout(p=0.1, inplace=False)
          (resid_dropout): Dropout(p=0.1, inplace=False)
        )
        (ln_2): LayerNorm((768,), eps=1e-05, elementwise_affine=True)
        (mlp): GPT2MLP(
          (c_fc): Conv1D()
          (c_proj): Conv1D()
          (act): NewGELUActivation()
          (dropout): Dropout(p=0.1, inplace=False)
        )
      )
    )
    (ln_f): LayerNorm((768,), eps=1e-05, elementwise_affine=True)
  )
  (score): Linear(in_features=768, out_features=5, bias=False)
)</output_code>
  <markdown>Aqui há duas coisas para mencionar

+ A primeira é que em ambos, a primeira camada tem dimensões de 50257x768, o que corresponde a 50257 possíveis tokens do vocabulário do GPT2 e a 768 dimensões do embedding, por isso fizemos bem em tokenizar as avaliações com um tamanho de 768 tokens
+ A segunda é que o modelo `casual` (o de
…
