…
  <markdown>Nos dice que los pesos de la capa `score` han sido inicializados de manera aleatoria y que tenemos que reentrenarlos, vamos a ver por qué pasa esto</markdown>
  <markdown>El modelo de GPT2 sería este</markdown>
  <input_code>from transformers import AutoModelForCausalLM

casual_model = AutoModelForCausalLM.from_pretrained(checkpoint)</input_code>
  <markdown>Mientras que el modelo de GPT2 para generar texto es este</markdown>
  <markdown>Vamos a ver su arquitectura</markdown>
  <input_code>casual_model</input_code>
  <output_code>GPT2LMHeadModel(
  (transformer): GPT2Model(
    (wte): Embedding(50257, 768)
    (wpe): Embedding(1024, 768)
    (drop): Dropout(p=0.1, inplace=False)
    (h): ModuleList(
      (0-11): 12 x GPT2Block(
        (ln_1): LayerNorm((768,), eps=1e-05, elementwise_affine=True)
        (attn): GPT2Attention(
          (c_attn): Conv1D()
          (c_proj): Conv1D()
          (attn_dropout): Dropout(p=0.1, inplace=False)
          (resid_dropout): Dropout(p=0.1, inplace=False)
        )
        (ln_2): LayerNorm((768,), eps=1e-05, elementwise_affine=True)
        (mlp): GPT2MLP(
          (c_fc): Conv1D()
          (c_proj): Conv1D()
          (act): NewGELUActivation()
          (dropout): Dropout(p=0.1, inplace=False)
        )
      )
    )
    (ln_f): LayerNorm((768,), eps=1e-05, elementwise_affine=True)
  )
  (lm_head): Linear(in_features=768, out_features=50257, bias=False)
)</output_code>
  <markdown>Y ahora la arquitectura del modelo que vamos a usar para clasificar las reviews</markdown>
  <input_code>model</input_code>
  <output_code>GPT2ForSequenceClassification(
  (transformer): GPT2Model(
    (wte): Embedding(50257, 768)
    (wpe): Embedding(1024, 768)
    (drop): Dropout(p=0.1, inplace=False)
    (h): ModuleList(
      (0-11): 12 x GPT2Block(
        (ln_1): LayerNorm((768,), eps=1e-05, elementwise_affine=True)
        (attn): GPT2Attention(
          (c_attn): Conv1D()
          (c_proj): Conv1D()
          (attn_dropout): Dropout(p=0.1, inplace=False)
          (resid_dropout): Dropout(p=0.1, inplace=False)
        )
        (ln_2): LayerNorm((768,), eps=1e-05, elementwise_affine=True)
        (mlp): GPT2MLP(
          (c_fc): Conv1D()
          (c_proj): Conv1D()
          (act): NewGELUActivation()
          (dropout): Dropout(p=0.1, inplace=False)
        )
      )
    )
    (ln_f): LayerNorm((768,), eps=1e-05, elementwise_affine=True)
  )
  (score): Linear(in_features=768, out_features=5, bias=False)
)</output_code>
  <markdown>De aquí hay dos cosas que mencionar

 + La primera es que en ambos, la primera capa tiene dimensiones de 50257x768, que corresponde a 50257 posibles tokens del vocabulario de GPT2 y a 768 dimensiones del embedding, por lo que hemos hecho bien en tokenizar las reviews con un tamaño de 768 tokens
 + La segunda es que el modelo 
…
