…
  <markdown>Vemos que tiene 124M de parámetros entrenables. Ahora vamos a congelarlos</markdown>
  <input_code>for param in model.parameters():
    param.requires_grad = False

total_params = sum(p.numel() for p in model.parameters() if p.requires_grad)
print(f"Total trainable parameters after: {total_params:,}")</input_code>
  <output_code>Total trainable parameters after: 0
</output_code>
  <markdown>Tras congelar ya no hay parámetros entrenables</markdown>
  <markdown>Vamos a ver cómo es el modelo antes de aplicar LoRA</markdown>
  <input_code>model</input_code>
  <output_code>GPT2ForSequenceClassification(
  (transformer): GPT2Model(
    (wte): Embedding(50257, 768)
    (wpe): Embedding(1024, 768)
    (drop): Dropout(p=0.1, inplace=False)
    (h): ModuleList(
      (0-11): 12 x GPT2Block(
        (ln_1): LayerNorm((768,), eps=1e-05, elementwise_affine=True)
        (attn): GPT2Attention(
          (c_attn): Conv1D()
          (c_proj): Conv1D()
          (attn_dropout): Dropout(p=0.1, inplace=False)
          (resid_dropout): Dropout(p=0.1, inplace=False)
        )
        (ln_2): LayerNorm((768,), eps=1e-05, elementwise_affine=True)
        (mlp): GPT2MLP(
          (c_fc): Conv1D()
          (c_proj): Conv1D()
          (act): NewGELUActivation()
          (dropout): Dropout(p=0.1, inplace=False)
        )
      )
    )
    (ln_f): LayerNorm((768,), eps=1e-05, elementwise_affine=True)
  )
  (score): Linear(in_features=768, out_features=5, bias=False)
)</output_code>
  <markdown>Primero creamos la capa LoRA layer.

Tiene que heredar de `torch.nn.Module` para que pueda actuar como una capa de una red neuronal

En el método `_init_` creamos las matrices `A` y `B` inicializadas como hemos explicado antes, la matriz `A` con una distribución gaussiana aleatoria y la matriz `B` con ceros. También creamos los parámetros `rank` y `alpha`.
…
  <markdown>Vemos ahora el número de parámetros entrenables</markdown>
  <input_code>total_params = sum(p.numel() for p in model.parameters() if p.requires_grad)
print(f"Total trainable LoRA parameters: {total_params:,}")</input_code>
  <output_code>Total trainable LoRA parameters: 12,368
</output_code>
  <markdown>Hemos pasado de 124M de parámetros entrenables a 12k parámetros entrenables, es decir, hemos reducido el número de parámetros entrenables 10.000 veces!</markdown>
  <markdown>Volvemos a ver el modelo</markdown>
  <input_code>model</input_code>
  <output_code>GPT2ForSequenceClassification(
  (transformer): GPT2Model(
    (wte): Embedding(50257, 768)
    (wpe): Embedding(1024, 768)
    (drop): Dropout(p=0.1, inplace=False)
    (h): ModuleList(
      (0-11): 12 x GPT2Block(
        (ln_1): LayerNorm((768,), eps=1e-05, elementwise_affine=True)
        (attn): GPT2Attention(
          (c_attn): Conv1D()
          (c_proj): Conv1D()
          (attn_dropout): Dropout(p=0.1, inplace=False)
          (resid_dropout): Dropout(p=0.1, inplace=False)
        )
        (ln_2): LayerNorm((768,), eps=1e-05, elementwise_affine=True)
        (mlp): GPT2MLP(
          (c_fc): Conv1D()
          (c_proj): Conv1D()
          (act): NewGELUActivation()
          (dropout): Dropout(p=0.1, inplace=False)
        )
      )
    )
    (ln_f): LayerNorm((768,), eps=1e-05, elementwise_affine=True)
  )
  (score): LoRALinear(
    (linear): Linear(in_features=768, out_features=5, bias=False)
    (lora): LoRALayer()
  )
)</output_code>
  <markdown>Vamos a compararlos capa por capa

|Modelo original|Modelo con LoRA|
|-|-|
|GPT2ForSequenceClassification(|GPT2ForSequenceClassification(|
|  (transformer): GPT2Model(|  (transformer): GPT2Model(|
|    (wte): Embedding(50257, 768)|    (wte): Embedding(50257, 768)|
|    (wpe): Embedding(1024, 768)|    (wpe): Embedding(1024, 768)|
|    (drop): Dropout(p=0.1, inplace=False)|    (drop): Dropout(p=0.1, inplace=False)|
|    (h): ModuleList(|    (h): ModuleList(|
|      (0-11): 12 x GPT2Block(|      (0-11): 12 x GPT2Block(|
|        (ln_1): LayerNorm((768,), eps=1e-05, elementwise_affine=True)|        (ln_1): LayerNorm((768,), eps=1e-05, elementwise_affine=True)|
|        (attn): GPT2Attention(|        (attn): GPT2Attention(|
|          (c_attn): Conv1D()|          (c_attn): Conv1D()|
|          (c_proj): Conv1D()|          (c_proj): Conv1D()|
|          (attn_dropout): Dropout(p=0.1, inplace=False)|          (attn_dropout): Dropout(p=0.1, inplace=False)|
|          (resid_dropout): Dropout(p=0.1, inplace=False)|          (resid_dropout): Dropout(p=0.1, inplace=False)|
|        )|        )|
|        (ln_2): LayerNorm((768,), eps=1e-05, elementwise_affine=True)|        (ln_2): LayerNorm((768,), eps=1e-05, elementwise_affine=True)|
|        (mlp): GPT2MLP(|        (mlp): GPT2MLP(|
|          (c_fc): Conv1D()|          (c_fc): Conv1D()|
|          (c_proj): Conv1D()|          (c_proj): Conv1D()|
|          (act): NewGELUActivation()|          (act): NewGELUActivation()|
|          (dropout): Dropout(p=0.1, inplace=False)|          (dropout): Dropout(p=0.1, inplace=False)|
|        )|        )|
|      )|      )|
|    )|    )|
|    (ln_f): LayerNorm((768,), eps=1e-05, elementwise_affine=True)|    (ln_f): LayerNorm((768,), eps=1e-05, elementwise_affine=True)|
|  )|  )|
||  (score): LoRALinear()|
|  (score): Linear(in_features=768, out_features=5, bias=False)|    (linear): Linear(in_features=768, out_features=5, bias=False)|
||    (lora): LoRALayer()|
||  )|
|)|)|

Vemos que son iguales menos al final, donde en el modelo original había una capa lineal normal y en el modelo con LoRA hay una capa `LoRALinear` que dentro tiene la capa lineal del modelo original y una capa `LoRALayer`</markdown>
  <markdown>### Training</markdown>
  <markdown>Una vez instanciado el modelo con LoRA, vamos a entrenarlo como siempre</markdown>
…
