…
    "validation": DataLoader(tokenized_dataset["validation"], batch_size=BS, shuffle=True),
    "test": DataLoader(tokenized_dataset["test"], batch_size=BS, shuffle=True),
}</input_code>
  <markdown>Cargamos el modelo</markdown>
  <input_code>from transformers import AutoModelForSequenceClassification

model = AutoModelForSequenceClassification.from_pretrained(checkpoints)</input_code>
  <markdown>Vamos a ver cómo es el modelo</markdown>
  <input_code>model</input_code>
  <output_code>RobertaForSequenceClassification(
  (roberta): RobertaModel(
    (embeddings): RobertaEmbeddings(
      (word_embeddings): Embedding(50265, 768, padding_idx=1)
      (position_embeddings): Embedding(514, 768, padding_idx=1)
      (token_type_embeddings): Embedding(1, 768)
      (LayerNorm): LayerNorm((768,), eps=1e-05, elementwise_affine=True)
      (dropout): Dropout(p=0.1, inplace=False)
    )
    (encoder): RobertaEncoder(
      (layer): ModuleList(
        (0-11): 12 x RobertaLayer(
          (attention): RobertaAttention(
            (self): RobertaSelfAttention(
              (query): Linear(in_features=768, out_features=768, bias=True)
              (key): Linear(in_features=768, out_features=768, bias=True)
              (value): Linear(in_features=768, out_features=768, bias=True)
              (dropout): Dropout(p=0.1, inplace=False)
            )
            (output): RobertaSelfOutput(
              (dense): Linear(in_features=768, out_features=768, bias=True)
              (LayerNorm): LayerNorm((768,), eps=1e-05, elementwise_affine=True)
              (dropout): Dropout(p=0.1, inplace=False)
            )
          )
          (intermediate): RobertaIntermediate(
            (dense): Linear(in_features=768, out_features=3072, bias=True)
            (intermediate_act_fn): GELUActivation()
          )
          (output): RobertaOutput(
            (dense): Linear(in_features=3072, out_features=768, bias=True)
            (LayerNorm): LayerNorm((768,), eps=1e-05, elementwise_affine=True)
            (dropout): Dropout(p=0.1, inplace=False)
          )
        )
      )
    )
  )
  (classifier): RobertaClassificationHead(
    (dense): Linear(in_features=768, out_features=768, bias=True)
    (dropout): Dropout(p=0.1, inplace=False)
    (out_proj): Linear(in_features=768, out_features=2, bias=True)
  )
)</output_code>
  <markdown>Vamos a ver su última capa</markdown>
  <input_code>model.classifier.out_proj</input_code>
  <output_code>Linear(in_features=768, out_features=2, bias=True)</output_code>
  <input_code>model.classifier.out_proj.in_features, model.classifier.out_proj.out_features</input_code>
  <output_code>(768, 2)</output_code>
  <markdown>Hemos visto que nuestro dataset tiene 20 clases, pero este modelo está entrenado para 2 clases, así que tenemos que modificar la última capa</markdown>
…
