…
  <markdown>Vemos que tem 124M de parâmetros treináveis. Agora vamos congelá-los.</markdown>
  <input_code>for param in model.parameters():
    param.requires_grad = False

total_params = sum(p.numel() for p in model.parameters() if p.requires_grad)
print(f"Total trainable parameters after: {total_params:,}")</input_code>
  <output_code>Total trainable parameters after: 0
</output_code>
  <markdown>Após o congelamento, não há mais parâmetros treináveis.</markdown>
  <markdown>Vamos ver como é o modelo antes de aplicar LoRA</markdown>
  <input_code>model</input_code>
  <output_code>GPT2ForSequenceClassification(
  (transformer): GPT2Model(
    (wte): Embedding(50257, 768)
    (wpe): Embedding(1024, 768)
    (drop): Dropout(p=0.1, inplace=False)
    (h): ModuleList(
      (0-11): 12 x GPT2Block(
        (ln_1): LayerNorm((768,), eps=1e-05, elementwise_affine=True)
        (attn): GPT2Attention(
          (c_attn): Conv1D()
          (c_proj): Conv1D()
          (attn_dropout): Dropout(p=0.1, inplace=False)
          (resid_dropout): Dropout(p=0.1, inplace=False)
        )
        (ln_2): LayerNorm((768,), eps=1e-05, elementwise_affine=True)
        (mlp): GPT2MLP(
          (c_fc): Conv1D()
          (c_proj): Conv1D()
          (act): NewGELUActivation()
          (dropout): Dropout(p=0.1, inplace=False)
        )
      )
    )
    (ln_f): LayerNorm((768,), eps=1e-05, elementwise_affine=True)
  )
  (score): Linear(in_features=768, out_features=5, bias=False)
)</output_code>
  <markdown>Primeiro criamos a camada LoRA layer.

Tem que herdar de `torch.nn.Module` para poder atuar como uma camada de uma rede neural

No método `_init_` criamos as matrizes `A` e `B` inicializadas como explicado anteriormente, a matriz `A` com uma distribuição gaussiana aleatória e a matriz `B` com zeros. Também criamos os parâmetros `rank` e `alpha`.
…
  <markdown>Vemos agora o número de parâmetros treináveis</markdown>
  <input_code>total_params = sum(p.numel() for p in model.parameters() if p.requires_grad)
print(f"Total trainable LoRA parameters: {total_params:,}")</input_code>
  <output_code>Total trainable LoRA parameters: 12,368
</output_code>
  <markdown>Passamos de 124M de parâmetros treináveis para 12k parâmetros treináveis, ou seja, reduzimos o número de parâmetros treináveis 10.000 vezes!</markdown>
  <markdown>Voltamos a ver o modelo</markdown>
  <input_code>model</input_code>
  <output_code>GPT2ForSequenceClassification(
  (transformer): GPT2Model(
    (wte): Embedding(50257, 768)
    (wpe): Embedding(1024, 768)
    (drop): Dropout(p=0.1, inplace=False)
    (h): ModuleList(
      (0-11): 12 x GPT2Block(
        (ln_1): LayerNorm((768,), eps=1e-05, elementwise_affine=True)
        (attn): GPT2Attention(
          (c_attn): Conv1D()
          (c_proj): Conv1D()
          (attn_dropout): Dropout(p=0.1, inplace=False)
          (resid_dropout): Dropout(p=0.1, inplace=False)
        )
        (ln_2): LayerNorm((768,), eps=1e-05, elementwise_affine=True)
        (mlp): GPT2MLP(
          (c_fc): Conv1D()
          (c_proj): Conv1D()
          (act): NewGELUActivation()
          (dropout): Dropout(p=0.1, inplace=False)
        )
      )
    )
    (ln_f): LayerNorm((768,), eps=1e-05, elementwise_affine=True)
  )
  (score): LoRALinear(
    (linear): Linear(in_features=768, out_features=5, bias=False)
    (lora): LoRALayer()
  )
)</output_code>
  <markdown>Vamos a compará-los camada por camada

|Modelo original|Modelo com LoRA|
|-|-|
|GPT2ForSequenceClassification(|GPT2ForSequenceClassification(|
|  (transformer): GPT2Model(|  (transformer): GPT2Model(|
|    (wte): Embedding(50257, 768)|    (wte): Embedding(50257, 768)|
|    (wpe): Embedding(1024, 768)|    (wpe): Embedding(1024, 768)|
|    (drop): Dropout(p=0.1, inplace=False)|    (drop): Dropout(p=0.1, inplace=False)|
|    (h): ModuleList(|    (h): ModuleList(|
|      (0-11): 12 x GPT2Block(|      (0-11): 12 x GPT2Block(|
|        (ln_1): LayerNorm((768,), eps=1e-05, elementwise_affine=True)|        (ln_1): LayerNorm((768,), eps=1e-05, elementwise_affine=True)|
|        (attn): GPT2Attention(|        (attn): GPT2Attention(|
|          (c_attn): Conv1D()|          (c_attn): Conv1D()|
|          (c_proj): Conv1D()|          (c_proj): Conv1D()|
|          (attn_dropout): Dropout(p=0.1, inplace=False)|          (attn_dropout): Dropout(p=0.1, inplace=False)|
|          (resid_dropout): Dropout(p=0.1, inplace=False)|          (resid_dropout): Dropout(p=0.1, inplace=False)|
|        )|        )|
|        (ln_2): LayerNorm((768,), eps=1e-05, elementwise_affine=True)|        (ln_2): LayerNorm((768,), eps=1e-05, elementwise_affine=True)||        (mlp): GPT2MLP(|        (mlp): GPT2MLP(|
|          (c_fc): Conv1D()|          (c_fc): Conv1D()|
|          (c_proj): Conv1D()|          (c_proj): Conv1D()|
|          (act): NewGELUActivation()|          (act): NewGELUActivation()|
|          (dropout): Dropout(p=0.1, inplace=False)|          (dropout): Dropout(p=0.1, inplace=False)|
|        )|        )|
|      )|      )|
|    )|    )|
|    (ln_f): LayerNorm((768,), eps=1e-05, elementwise_affine=True)|    (ln_f): LayerNorm((768,), eps=1e-05, elementwise_affine=True)|
|  )|  )|
||  (pontuação): LoRALinear()|
|  (score): Linear(in_features=768, out_features=5, bias=False)|    (linear): Linear(in_features=768, out_features=5, bias=False)|
||    (lora): LoRAL层()| 

Nota: Parece que hubo un error en la traducción del término "LoRALayer" al portugués. La traducción correcta sería:

||    (lora): LoRALayer()|
||  )|
|)|)|

Vemos que são iguais, exceto no final, onde no modelo original havia uma camada linear normal e no modelo com LoRA há uma camada `LoRALinear` que dentro possui a camada linear do modelo original e uma camada `LoRALayer`
…
