…
  <markdown>We see that it has 124M trainable parameters. Now we are going to freeze them.</markdown>
  <input_code>for param in model.parameters():
    param.requires_grad = False

total_params = sum(p.numel() for p in model.parameters() if p.requires_grad)
print(f"Total trainable parameters after: {total_params:,}")</input_code>
  <output_code>Total trainable parameters after: 0
</output_code>
  <markdown>After freezing, there are no trainable parameters left.</markdown>
  <markdown>Let's see how the model looks before applying LoRA</markdown>
  <input_code>model</input_code>
  <output_code>GPT2ForSequenceClassification(
  (transformer): GPT2Model(
    (wte): Embedding(50257, 768)
    (wpe): Embedding(1024, 768)
    (drop): Dropout(p=0.1, inplace=False)
    (h): ModuleList(
      (0-11): 12 x GPT2Block(
        (ln_1): LayerNorm((768,), eps=1e-05, elementwise_affine=True)
        (attn): GPT2Attention(
          (c_attn): Conv1D()
          (c_proj): Conv1D()
          (attn_dropout): Dropout(p=0.1, inplace=False)
          (resid_dropout): Dropout(p=0.1, inplace=False)
        )
        (ln_2): LayerNorm((768,), eps=1e-05, elementwise_affine=True)
        (mlp): GPT2MLP(
          (c_fc): Conv1D()
          (c_proj): Conv1D()
          (act): NewGELUActivation()
          (dropout): Dropout(p=0.1, inplace=False)
        )
      )
    )
    (ln_f): LayerNorm((768,), eps=1e-05, elementwise_affine=True)
  )
  (score): Linear(in_features=768, out_features=5, bias=False)
)</output_code>
  <markdown>First we create the LoRA layer.

It has to inherit from `torch.nn.Module` so that it can act as a layer of a neural network

In the `_init_` method we create the matrices `A` and `B` initialized as explained before, matrix `A` with a random Gaussian distribution and matrix `B` with zeros. We also create the parameters `rank` and `alpha`.
…
  <markdown>We now see the number of trainable parameters</markdown>
  <input_code>total_params = sum(p.numel() for p in model.parameters() if p.requires_grad)
print(f"Total trainable LoRA parameters: {total_params:,}")</input_code>
  <output_code>Total trainable LoRA parameters: 12,368
</output_code>
  <markdown>We have gone from 124M trainable parameters to 12k trainable parameters, that is, we have reduced the number of trainable parameters by 10,000 times!</markdown>
  <markdown>We revisit the model</markdown>
  <input_code>model</input_code>
  <output_code>GPT2ForSequenceClassification(
  (transformer): GPT2Model(
    (wte): Embedding(50257, 768)
    (wpe): Embedding(1024, 768)
    (drop): Dropout(p=0.1, inplace=False)
    (h): ModuleList(
      (0-11): 12 x GPT2Block(
        (ln_1): LayerNorm((768,), eps=1e-05, elementwise_affine=True)
        (attn): GPT2Attention(
          (c_attn): Conv1D()
          (c_proj): Conv1D()
          (attn_dropout): Dropout(p=0.1, inplace=False)
          (resid_dropout): Dropout(p=0.1, inplace=False)
        )
        (ln_2): LayerNorm((768,), eps=1e-05, elementwise_affine=True)
        (mlp): GPT2MLP(
          (c_fc): Conv1D()
          (c_proj): Conv1D()
          (act): NewGELUActivation()
          (dropout): Dropout(p=0.1, inplace=False)
        )
      )
    )
    (ln_f): LayerNorm((768,), eps=1e-05, elementwise_affine=True)
  )
  (score): LoRALinear(
    (linear): Linear(in_features=768, out_features=5, bias=False)
    (lora): LoRALayer()
  )
)</output_code>
  <markdown>Let's compare them layer by layer

|Original Model|Model with LoRA|
|-|-|
|GPT2ForSequenceClassification(|GPT2ForSequenceClassification(|
|  (transformer): GPT2Model(|  (transformer): GPT2Model(|
|    (wte): Embedding(50257, 768)|    (wte): Embedding(50257, 768)|
|    (wpe): Embedding(1024, 768)|    (wpe): Embedding(1024, 768)|
|    (drop): Dropout(p=0.1, inplace=False)|    (drop): Dropout(p=0.1, inplace=False)|
|    (h): ModuleList(|    (h): ModuleList(|
|      (0-11): 12 x GPT2Block(|      (0-11): 12 x GPT2Block(|
|        (ln_1): LayerNorm((768,), eps=1e-05, elementwise_affine=True)|        (ln_1): LayerNorm((768,), eps=1e-05, elementwise_affine=True)|
|        (attn): GPT2Attention(|        (attn): GPT2Attention(|
|          (c_attn): Conv1D()|          (c_attn): Conv1D()|
|          (c_proj): Conv1D()|          (c_proj): Conv1D()|
|          (attn_dropout): Dropout(p=0.1, inplace=False)|          (attn_dropout): Dropout(p=0.1, inplace=False)|
|          (resid_dropout): Dropout(p=0.1, inplace=False)|          (resid_dropout): Dropout(p=0.1, inplace=False)|
|        )|        )|
|        (ln_2): LayerNorm((768,), eps=1e-05, elementwise_affine=True)|        (ln_2): LayerNorm((768,), eps=1e-05, elementwise_affine=True)||        (mlp): GPT2MLP(|        (mlp): GPT2MLP(|
|          (c_fc): Conv1D()|          (c_fc): Conv1D()|
|          (c_proj): Conv1D()|          (c_proj): Conv1D()|
|          (act): NewGELUActivation()|          (act): NewGELUActivation()|
|          (dropout): Dropout(p=0.1, inplace=False)|          (dropout): Dropout(p=0.1, inplace=False)|
|        )|        )|
|      )|      )|
|    )|    )|
|    (ln_f): LayerNorm((768,), eps=1e-05, elementwise_affine=True)|    (ln_f): LayerNorm((768,), eps=1e-05, elementwise_affine=True)|
|  )|  )|
||  (score): LoRALinear()|
|  (score): Linear(in_features=768, out_features=5, bias=False)|    (linear): Linear(in_features=768, out_features=5, bias=False)|
||    (lora): LoRALayer()|
||  )|
|)|)|

We see that they are the same except at the end, where in the original model there was a normal linear layer and in the model with LoRA there is a `LoRALinear` layer which inside has the original model's linear layer and a `LoRALayer`.
</markdown>
  <markdown>### Training</markdown>
  <markdown>Once the model has been instantiated with LoRA, we are going to train it as usual</markdown>
…
